Model: "model_1"
__________________________________________________________________________________________________
Layer (type)                    Output Shape         Param #     Connected to                     
==================================================================================================
input_3 (InputLayer)            [(None, 2048, 21)]   0                                            
__________________________________________________________________________________________________
conv1d (Conv1D)                 (None, 256, 168)     42504       input_3[0][0]                    
__________________________________________________________________________________________________
leaky_re_lu (LeakyReLU)         (None, 256, 168)     0           conv1d[0][0]                     
__________________________________________________________________________________________________
conv1d_1 (Conv1D)               (None, 32, 256)      516352      leaky_re_lu[0][0]                
__________________________________________________________________________________________________
leaky_re_lu_1 (LeakyReLU)       (None, 32, 256)      0           conv1d_1[0][0]                   
__________________________________________________________________________________________________
flatten (Flatten)               (None, 43008)        0           leaky_re_lu[0][0]                
__________________________________________________________________________________________________
flatten_1 (Flatten)             (None, 8192)         0           leaky_re_lu_1[0][0]              
__________________________________________________________________________________________________
dense_1 (Dense)                 (None, 50)           2150450     flatten[0][0]                    
__________________________________________________________________________________________________
input_4 (InputLayer)            [(None, 50)]         0                                            
__________________________________________________________________________________________________
dense_3 (Dense)                 (None, 50)           409650      flatten_1[0][0]                  
__________________________________________________________________________________________________
dot (Dot)                       (None, 1)            0           dense_1[0][0]                    
                                                                 input_4[0][0]                    
__________________________________________________________________________________________________
dense_2 (Dense)                 (None, 1)            51          dense_1[0][0]                    
__________________________________________________________________________________________________
dot_1 (Dot)                     (None, 1)            0           dense_3[0][0]                    
                                                                 input_4[0][0]                    
__________________________________________________________________________________________________
dense_4 (Dense)                 (None, 1)            51          dense_3[0][0]                    
__________________________________________________________________________________________________
add (Add)                       (None, 1)            0           dot[0][0]                        
                                                                 dense_2[0][0]                    
__________________________________________________________________________________________________
add_1 (Add)                     (None, 1)            0           dot_1[0][0]                      
                                                                 dense_4[0][0]                    
__________________________________________________________________________________________________
flatten_2 (Flatten)             (None, 8192)         0           leaky_re_lu_1[0][0]              
__________________________________________________________________________________________________
add_2 (Add)                     (None, 1)            0           add[0][0]                        
                                                                 add_1[0][0]                      
__________________________________________________________________________________________________
dense_5 (Dense)                 (None, 50)           409650      flatten_2[0][0]                  
==================================================================================================
Total params: 3,528,708
Trainable params: 3,528,708
Non-trainable params: 0
__________________________________________________________________________________________________
