…
Layer (type)                    Output Shape         Param #     Connected to                     
==================================================================================================
input_1 (InputLayer)            [(None, 100)]        0                                            
__________________________________________________________________________________________________
input_2 (InputLayer)            [(None, 50)]         0                                            
__________________________________________________________________________________________________
concatenate (Concatenate)       (None, 150)          0           input_1[0][0]                    
                                                                 input_2[0][0]                    
__________________________________________________________________________________________________
dense (Dense)                   (None, 43008)        6494208     concatenate[0][0]                
__________________________________________________________________________________________________
batch_normalization (BatchNorma (None, 43008)        172032      dense[0][0]                      
__________________________________________________________________________________________________
reshape (Reshape)               (None, 32, 1344)     0           batch_normalization[0][0]        
__________________________________________________________________________________________________
conv1d_transpose (Conv1DTranspo (None, 256, 168)     2709672     reshape[0][0]                    
__________________________________________________________________________________________________
re_lu (ReLU)                    (None, 256, 168)     0           conv1d_transpose[0][0]           
__________________________________________________________________________________________________
batch_normalization_1 (BatchNor (None, 256, 168)     672         re_lu[0][0]                      
__________________________________________________________________________________________________
conv1d_transpose_1 (Conv1DTrans (None, 2048, 21)     42357       batch_normalization_1[0][0]      
__________________________________________________________________________________________________
re_lu_1 (ReLU)                  (None, 2048, 21)     0           conv1d_transpose_1[0][0]         
__________________________________________________________________________________________________
softmax (Softmax)               (None, 2048, 21)     0           re_lu_1[0][0]                    
==================================================================================================
Total params: 9,418,941
Trainable params: 9,332,589
Non-trainable params: 86,352
__________________________________________________________________________________________________
